models/agent1.onnx (onnx, 221681 bytes, 16 tensors)

input_proj.bias f4 [64]
0	0xbebd2c27	-0.36947748
1	0x3eb18c32	0.34677273
2	0x3d88b57a	0.06675239
3	0x3c3f37f3	0.011671054
4	0x3deb88cc	0.11500701
5	0x3e8a668a	0.27031356
6	0x3e7120d1	0.23547675
7	0xbe81eb62	-0.25374895
8	0xbe8be736	-0.27324837
9	0x3c1a27cb	0.009408901
10	0x3daf713d	0.0856652
11	0xbe5410a6	-0.20709476
12	0xbeada3b2	-0.33913952
13	0x3eb0f48f	0.34561583
14	0xbe655b1a	-0.22398034
15	0xbe5774cb	-0.21040647
16	0x3eca6939	0.39533404
17	0xbe1e2fd0	-0.15447927
18	0xbeb661ad	-0.35621396
19	0xbecf9144	-0.40540516
20	0xbe6be59d	-0.2303681
21	0xbdf6164f	-0.12015974
22	0xbe1ec626	-0.15505275
23	0x3e63f885	0.22262771
24	0xbe815433	-0.2525955
25	0xbdd918c9	-0.106004305
26	0xbecc0342	-0.39846236
27	0x3e19c9de	0.15018412
28	0x3e3e2b7d	0.18571277
29	0xbe906799	-0.2820404
30	0xbe0bb607	-0.13643657
31	0x3e8fc792	0.28081948
32	0x3da8f8ae	0.08250557
33	0xbe2ef9ee	-0.17087528
34	0x3e380b50	0.17973065
35	0x3cae49ff	0.021275518
36	0x3e40d942	0.18832877
37	0xbcdcf0fb	-0.026970377
38	0x3e0752f7	0.13215242
39	0x3e8fdd6a	0.28098613
40	0xbe72caba	-0.23710147
41	0x3e7dfdec	0.24803895
42	0xbe94679e	-0.28985304
43	0xbe464db1	-0.19365574
44	0x3e6d0668	0.23146975
45	0xbd9a8a9b	-0.07545968
46	0xbe1ac207	-0.15113078
47	0xbda62e98	-0.08114356
48	0xbe8fc92e	-0.28083175
49	0x3c92a851	0.017902525
50	0x3cac8b8d	0.021062637
51	0xbdd56c2e	-0.10421024
52	0x3c8705a0	0.016482174
53	0x3e840f5a	0.25792962
54	0x3e2d2f03	0.16912465
55	0xbe74d56a	-0.23909536
56	0xbe260aad	-0.1621501
57	0x3e1b5ff8	0.15173328
58	0xbe54fcd3	-0.2079957
59	0xbe9095c0	-0.2823925
60	0x3db95ca9	0.09050877
61	0xbe541ae7	-0.20713387
62	0xbe11a175	-0.14221747
63	0xbcfe9e5b	-0.03108137

time_embedding.time_proj.bias f4 [64]
0	0x3e69193e	0.22763535
1	0x3e8c003a	0.27343923
2	0x3ee6232d	0.44948712
3	0xbd997ef8	-0.074949205
4	0xbef7b6bf	-0.48381612
5	0xbe7f8a98	-0.24955213
6	0x3d06800b	0.032836955
7	0x3dfbabf3	0.12288656
8	0xbc9bcb40	-0.019017816
9	0xbe8c6453	-0.2742029
10	0x3d028e09	0.031873737
11	0xbe65c1de	-0.22437236
12	0xbd3db36e	-0.046313696
13	0x3e8feec3	0.28111848
14	0x3ee6f2d0	0.45107126
15	0xbe938655	-0.28813425
16	0x3e8da6d1	0.27666333
17	0xbed1d782	-0.40984732
18	0xbeb072f7	-0.3446271
19	0xbe05f2e2	-0.13080934
20	0x3db3e3d6	0.08783691
21	0xbe74f7a2	-0.2392259
22	0xbe354659	-0.17702617
23	0x3eb1437d	0.34621802
24	0x3e9f8ceb	0.311622
25	0x3ed55e23	0.41673383
26	0xbea360f2	-0.319099
27	0x3e55fa45	0.20896251
28	0x3e8d8249	0.27638462
29	0x3efaad5d	0.4896039
30	0x3e2b8874	0.16751271
31	0x3efa5c59	0.4889858
32	0xbe6440bb	-0.22290318
33	0xbee81787	-0.4533045
34	0x3ea6c392	0.32571083
35	0xbe35862e	-0.17726967
36	0x3ead1f08	0.33812737
37	0x3ea20928	0.3164761
38	0x3e580ee4	0.2109943
39	0x3d3dd23f	0.046343084
40	0x3d59afbb	0.053146105
41	0xbe12998e	-0.14316389
42	0xbdc5f3d8	-0.0966565
43	0x3e941a6d	0.2892641
44	0xbe471fe7	-0.19445764
45	0xbe0d51ac	-0.13800687
46	0xbdd143ba	-0.10217996
47	0x3e3b128c	0.18268794
48	0x3b886c81	0.0041633253
49	0xbe8583e3	-0.26077184
50	0x3ef7fe17	0.48436043
51	0xbeb290db	-0.3487614
52	0xbe0a3bab	-0.13499324
53	0x3d26400c	0.040588424
54	0x3d74e0da	0.059784748
55	0xbe8e1aaa	-0.27754718
56	0x3e6df66e	0.23238537
57	0x3ecc956a	0.39957744
58	0x3dead3b0	0.114661574
59	0xbe9399a4	-0.28828156
60	0x3df0cf69	0.1175831
61	0xbec551b9	-0.38538912
62	0xbe3bb849	-0.18332018
63	0x3ea4bb09	0.32173946

transformer_encoder.layers.0.self_attn.out_proj.bias f4 [64]
0	0x3a7095d2	0.00091775984
1	0x3a90baeb	0.0011042034
2	0xbab85032	-0.0014061986
3	0xb93dc1d7	-0.00018096656
4	0x3a529e7a	0.0008034479
5	0x3aabb602	0.0013100507
6	0x39dc9835	0.00042075073
7	0xba4a4eff	-0.000771746
8	0xba72d900	-0.0009263903
9	0xb95b5311	-0.00020916412
10	0xba2ea73f	-0.0006662495
11	0xba81c6ad	-0.0009901129
12	0xba36c258	-0.00069717085
13	0x3aa20773	0.0012361839
14	0xb9c2b5b6	-0.0003713795
15	0xba68c3df	-0.0008879285
16	0xba5fa66c	-0.00085315737
17	0xba6569ca	-0.00087514205
18	0xb951d2b5	-0.00020010288
19	0x3ad0ed76	0.001593991
20	0x39f2cc97	0.00046310268
21	0x39c8aea3	0.00038277087
22	0x3a17fd30	0.0005797921
23	0xbb0870a1	-0.0020819085
24	0xb898ae77	-7.2804214e-05
25	0xb8d57dac	-0.0001018004
26	0x3a04a008	0.0005059247
27	0x3a9b0fc3	0.0011830259
28	0xb9e6b033	-0.00044000297
29	0xbab0e0a9	-0.0013494688
30	0x3982cc74	0.00024947862
31	0xbb107a90	-0.002204571
32	0x3aa64bf8	0.0012687435
33	0x3b025850	0.0019889064
34	0xbad14eb4	-0.001596889
35	0x398be174	0.00026680122
36	0xb9eebfe9	-0.00045537882
37	0xbb3262b8	-0.0027219485
38	0x3a5d510e	0.0008442559
39	0xb9ab195a	-0.0003263455
40	0x3965a047	0.0002189885
41	0x3a852f6d	0.0010161229
42	0xbad371ea	-0.0016131971
43	0xb8fdfcce	-0.00012111069
44	0x398303f3	0.0002498921
45	0xba510d61	-0.0007974711
46	0xb9ed9f64	-0.00045322918
47	0x3a140828	0.00056469673
48	0xbad4754b	-0.0016209272
49	0x3a9aa49f	0.0011798328
50	0x3a81aef6	0.0009894061
51	0x3a0366ab	0.0005012552
52	0xba6a731c	-0.0008943544
53	0xba71a2f7	-0.0009217704
54	0xb99c1314	-0.00029768853
55	0xba34cb2a	-0.0006896729
56	0x3ad7e8d9	0.0016472592
57	0xb9aaf4d7	-0.00032607347
58	0x3abcb656	0.0014397602
59	0x3a6826f5	0.00088559027
60	0x39cdff70	0.00039290963
61	0xb9315795	-0.00016912662
62	0x39c42b48	0.0003741628
63	0x36566d92	3.1952263e-06

transformer_encoder.layers.0.linear2.bias f4 [64]
0	0xbbdef7dd	-0.00680445
1	0x3bc54fef	0.0060214917
2	0x3c3d3f01	0.011550666
3	0xbc9f0846	-0.019413125
4	0x3cb4f347	0.02208866
5	0xbbca0071	-0.0061646034
6	0xbcb4c996	-0.02206878
7	0x3beb9f4c	0.0071906205
8	0x3bf1d69d	0.00738032
9	0x3b81a7ca	0.0039567696
10	0xbc8ca06f	-0.017166344
11	0xbc26c18b	-0.01017798
12	0x3b37385d	0.002795718
13	0x3c681514	0.014165182
14	0x3bedc1fe	0.0072557917
15	0x3c9b14e8	0.018930867
16	0xbc291f75	-0.010322441
17	0xba6fdbde	-0.0009149889
18	0x3b8a39bb	0.004218308
19	0x3c50be03	0.012740615
20	0x3c7e5c8a	0.015524993
21	0xbb62b046	-0.003458993
22	0xbc89de4e	-0.016829636
23	0x3c22d1bb	0.009937699
24	0xbb9ec203	-0.0048449053
25	0x3c32c0b5	0.010910203
26	0x3ca07eb6	0.01959167
27	0xbc846b1c	-0.016164355
28	0x3b7e3d8f	0.0038794016
29	0x3ba28aca	0.0049603926
30	0xbab348e5	-0.001367834
31	0xbc2b6bee	-0.010462744
32	0xbc7b4f7b	-0.015338774
33	0x3c235d5f	0.009970992
34	0xbbdba576	-0.006703074
35	0xbc2b1f51	-0.010444478
36	0xbc4eccca	-0.012622068
37	0xbbb4342e	-0.0054993844
38	0x3cb515a6	0.02210505
39	0x3ad3ea4c	0.0016167848
40	0xbcad3623	-0.021143978
41	0x3c1826c9	0.009286591
42	0x3c10c8e8	0.008836962
43	0x3c80957a	0.015696276
44	0x3ad2c072	0.0016079082
45	0x3c2faafc	0.010721918
46	0xbc49672b	-0.012292664
47	0x3c2524d8	0.010079585
48	0xbc5f5ad7	-0.013632498
49	0xbb9c34cb	-0.0047670356
50	0x3bdaebef	0.0066809575
51	0xbb944392	-0.0045246566
52	0x3c27ef50	0.010249928
53	0x3c2485d2	0.010041671
54	0x3c9dea09	0.019276636
55	0xbbcf2bb2	-0.0063223476
56	0xbc06cf97	-0.008228204
57	0xbca90452	-0.020631943
58	0xbca3b579	-0.019983994
59	0xbc92131b	-0.017831376
60	0xbb8c7ec6	-0.0042875735
61	0x3ca5f564	0.020258613
62	0xbcb228d4	-0.021747984
63	0x3c04d2bf	0.008106886

transformer_encoder.layers.0.norm1.weight f4 [64]
0	0x3f7f7425	0.997866
1	0x3f801410	1.0006123
2	0x3f7fbeb0	0.9990034
3	0x3f7fd975	0.9994119
4	0x3f802ac9	1.0013057
5	0x3f806a0c	1.0032363
6	0x3f7fb09b	0.99878854
7	0x3f7ff624	0.99984956
8	0x3f7fec91	0.99970347
9	0x3f7fe0b2	0.9995223
10	0x3f7fcc48	0.99921083
11	0x3f8049fe	1.0022581
12	0x3f801404	1.0006108
13	0x3f8039b3	1.0017608
14	0x3f7f7911	0.9979411
15	0x3f80124d	1.0005585
16	0x3f800e3e	1.0004346
17	0x3f7fe758	0.9996238
18	0x3f7ff32e	0.9998044
19	0x3f7f867a	0.9981457
20	0x3f8026e3	1.0011867
21	0x3f8026a2	1.001179
22	0x3f80742c	1.0035453
23	0x3f7f50ef	0.9973287
24	0x3f80157c	1.0006557
25	0x3f7ff7ed	0.9998768
26	0x3f7ffe8a	0.9999777
27	0x3f804e90	1.0023975
28	0x3f80250b	1.0011305
29	0x3f7fd44b	0.9993331
30	0x3f7f8516	0.9981245
31	0x3f7f363a	0.9969212
32	0x3f80087c	1.0002589
33	0x3f805385	1.0025488
34	0x3f8029b9	1.0012733
35	0x3f7f9eaa	0.9985148
36	0x3f7f485c	0.99719787
37	0x3f7f2eca	0.9968077
38	0x3f80085a	1.0002549
39	0x3f800cb9	1.0003883
40	0x3f8020bd	1.0009991
41	0x3f7f6e8b	0.9977805
42	0x3f803e97	1.0019101
43	0x3f7fff7f	0.9999923
44	0x3f7f71cc	0.99783015
45	0x3f807afe	1.0037534
46	0x3f7f9e69	0.9985109
47	0x3f803468	1.0015993
48	0x3f806ef6	1.0033863
49	0x3f7fc694	0.9991238
50	0x3f7fc82e	0.99914825
51	0x3f7fe325	0.9995597
52	0x3f80137f	1.000595
53	0x3f7f8628	0.9981408
54	0x3f80209f	1.0009955
55	0x3f8027fc	1.0012202
56	0x3f7fbd11	0.9989787
57	0x3f7f8e70	0.9982672
58	0x3f7fdcb2	0.9994613
59	0x3f8041ab	1.002004
60	0x3f7fdf9e	0.9995059
61	0x3f8001b6	1.0000522
62	0x3f803177	1.0015095
63	0x3f800218	1.0000639

transformer_encoder.layers.0.norm1.bias f4 [64]
0	0x3a2cc83b	0.0006591116
1	0x390a94b0	0.00013216096
2	0xbb0df61b	-0.0021661583
3	0xba14221c	-0.00056508346
4	0x3a19b336	0.00058631913
5	0xb92012e5	-0.00015265828
6	0xb73681e2	-1.0878286e-05
7	0x38ef44e1	0.00011409238
8	0xb99ade7b	-0.0002953893
9	0xba302579	-0.0006719451
10	0xb984fe8d	-0.00025366657
11	0xb9bdd35e	-0.0003620637
12	0xba00fb4d	-0.0004920259
13	0x3a3bb04a	0.0007159753
14	0x38e4335f	0.00010881456
15	0xb9904ab2	-0.00027521473
16	0xba098ae8	-0.0005246834
17	0x39d2024d	0.00040056036
18	0x3a15e2c7	0.00057176914
19	0x3b04e9d3	0.0020280972
20	0x39b74b79	0.00034960711
21	0xb7ab6a52	-2.0434298e-05
22	0x38966771	7.171825e-05
23	0xbaf813c3	-0.0018926788
24	0xb99e43c6	-0.00030186604
25	0x381c800f	3.7312562e-05
26	0x3a6c3046	0.0009009879
27	0x39c57def	0.00037668596
28	0xba488ee3	-0.00076506863
29	0xba7a5f9f	-0.0009550992
30	0x3959d230	0.00020773034
31	0xbb25527f	-0.0025226173
32	0x3a27a8cd	0.0006395698
33	0x3afb3636	0.0019165936
34	0xba9e8540	-0.0012094155
35	0xb9ba009f	-0.00035477147
36	0xba1ae440	-0.00059086457
37	0xbb16a574	-0.0022986801
38	0x3a0298a4	0.00049818517
39	0xba9ce1a2	-0.0011969099
40	0xb9586301	-0.00020636247
41	0x39cdb5e3	0.00039236163
42	0xba4cd400	-0.0007813573
43	0x398a4bfd	0.00026378027
44	0x3a389f94	0.0007042822
45	0xb9dbc626	-0.00041918567
46	0xba3e243a	-0.0007253323
47	0x37067c4c	8.0159625e-06
48	0xba664088	-0.00087834196
49	0x3a49e47f	0.000770159
50	0x3a00c3d0	0.0004911991
51	0x39455951	0.00018820657
52	0x38ba7a64	8.891968e-05
53	0xba2a58fa	-0.0006498244
54	0xba08e969	-0.0005222769
55	0xb9db6dc7	-0.00041852726
56	0x3a23a39d	0.0006242337
57	0xba4666f6	-0.0007568443
58	0x3a4d0862	0.00078213785
59	0x3a63811b	0.0008678601
60	0x399827cf	0.0002902136
61	0xb84c0d63	-4.8649857e-05
62	0x3a13a9e1	0.0005632919
63	0x3993c39d	0.00028183768

transformer_encoder.layers.0.norm2.weight f4 [64]
0	0x3f7f2c17	0.9967665
1	0x3f8030ad	1.0014855
2	0x3f7ff515	0.9998334
3	0x3f7fbd1b	0.9989793
4	0x3f80320f	1.0015277
5	0x3f80514a	1.0024807
6	0x3f7f83c7	0.9981045
7	0x3f800caa	1.0003865
8	0x3f7fdda2	0.9994756
9	0x3f7fd249	0.99930245
10	0x3f800b87	1.0003518
11	0x3f803ba0	1.0018196
12	0x3f801fa7	1.000966
13	0x3f803dd6	1.0018871
14	0x3f7f6428	0.997622
15	0x3f8003bc	1.000114
16	0x3f800fee	1.0004861
17	0x3f800f5a	1.0004685
18	0x3f7fe581	0.9995957
19	0x3f7fce01	0.9992371
20	0x3f801889	1.0007488
21	0x3f803a9b	1.0017885
22	0x3f802abd	1.0013043
23	0x3f7fd0c3	0.9992792
24	0x3f800eda	1.0004532
25	0x3f7fe808	0.99963427
26	0x3f7fe106	0.99952734
27	0x3f8061d3	1.0029854
28	0x3f802479	1.001113
29	0x3f7fd15f	0.9992885
30	0x3f7fdac2	0.9994317
31	0x3f7fb3a4	0.99883485
32	0x3f7fe123	0.99952906
33	0x3f80494f	1.0022372
34	0x3f80617f	1.0029753
35	0x3f7f7dfc	0.9980161
36	0x3f7f2611	0.9966746
37	0x3f7fa758	0.9986472
38	0x3f800d58	1.0004072
39	0x3f803307	1.0015572
40	0x3f802ee8	1.0014315
41	0x3f7f132a	0.9963862
42	0x3f8032b0	1.0015469
43	0x3f800d21	1.0004007
44	0x3f7fb319	0.99882656
45	0x3f80638c	1.0030379
46	0x3f7f5f11	0.99754435
47	0x3f803a13	1.0017723
48	0x3f804e18	1.0023832
49	0x3f800178	1.0000448
50	0x3f7faeda	0.9987618
51	0x3f7fe182	0.9995347
52	0x3f80128e	1.0005662
53	0x3f7f467e	0.9971694
54	0x3f8017d0	1.0007267
55	0x3f800aa5	1.0003248
56	0x3f7f7750	0.9979143
57	0x3f8018b9	1.0007545
58	0x3f7feb8e	0.999688
59	0x3f803b17	1.0018033
60	0x3f7fd694	0.99936795
61	0x3f800c6b	1.000379
62	0x3f8026d2	1.0011847
63	0x3f7fed8d	0.9997185

transformer_encoder.layers.0.norm2.bias f4 [64]
0	0x39072dd4	0.00012891676
1	0x38acaa85	8.233361e-05
2	0xba71ebd8	-0.0009228564
3	0xb9c35a9d	-0.0003726081
4	0x39135b5b	0.00014053045
5	0xb912fd37	-0.00014017975
6	0xb98a7a04	-0.0002641232
7	0xb93939fe	-0.00017664579
8	0xb9c2448a	-0.0003705363
9	0xba060294	-0.00051120785
10	0x3a193ceb	0.00058455643
11	0xb9ec590f	-0.00045079782
12	0xba0db09c	-0.000540504
13	0x39ce74fe	0.00039378548
14	0x38a879fc	8.0335856e-05
15	0xb918b0f5	-0.00014561771
16	0x38ed857c	0.00011325904
17	0x39c733fc	0.0003799497
18	0x39e3d5c4	0.00043456082
19	0x3ac3061b	0.0014879139
20	0x39625fb6	0.00021588695
21	0x3a81cc31	0.0009902773
22	0x3a10fb06	0.00055305695
23	0xba3fd478	-0.0007317732
24	0xb8363f36	-4.345105e-05
25	0x3956486c	0.0002043561
26	0xba686ca0	-0.0008866284
27	0x3a97e8f2	0.0011589809
28	0xba1fe1f1	-0.00060990365
29	0xba5f65df	-0.0008521955
30	0xba27a1af	-0.0006394637
31	0xba22bfa2	-0.0006208365
32	0xb8cec17c	-9.858885e-05
33	0x3aa891e3	0.001286086
34	0xbab74431	-0.0013982115
35	0xb9da41b8	-0.00041629164
36	0xb9b222fd	-0.00033976874
37	0xb9eed1d6	-0.00045551237
38	0x3a03db80	0.00050299615
39	0xb98253fa	-0.000248581
40	0xb9802211	-0.00024439444
41	0x38d7cef4	0.00010290547
42	0xba28c804	-0.0006438496
43	0x3a1458db	0.00056589924
44	0x39ac8afb	0.00032909945
45	0xb9aa81fd	-0.00032521776
46	0xb9f0b67d	-0.00045912332
47	0x39948274	0.00028325955
48	0xba448a6e	-0.0007497434
49	0x3a38c473	0.0007048316
50	0x39afafc7	0.00033509565
51	0xb749e69a	-1.2034225e-05
52	0xb964b6a8	-0.00021811819
53	0xb932dc32	-0.00017057432
54	0xb9761e0f	-0.00023471586
55	0x399880b4	0.0002908759
56	0x3916a2bb	0.00014365737
57	0xb9d1786b	-0.00039953305
58	0x3a0abe15	0.00052926067
59	0x3a4286b9	0.0007420588
60	0x3892fe82	7.009228e-05
61	0x390c5ec2	0.0001338674
62	0xba01b0c8	-0.0004947302
63	0x39f2210f	0.00046182467

transformer_encoder.layers.1.self_attn.out_proj.bias f4 [64]
0	0xb9d66b58	-0.00040897238
1	0x3a037a45	0.0005015473
2	0xba4c6ee1	-0.00077985047
3	0xba011de4	-0.00049254135
4	0x3962acf0	0.00021617464
5	0x366865f4	3.4630038e-06
6	0x39f90150	0.0004749396
7	0xba2a70f5	-0.0006501817
8	0xba0dd442	-0.0005410352
9	0xba186cb1	-0.0005814536
10	0x3aa0e457	0.0012275082
11	0xba984fe4	-0.0011620489
12	0xb91b6ea7	-0.00014823173
13	0x3a5907f0	0.0008279076
14	0xb9110d9c	-0.00013833347
15	0xb9744a28	-0.00023297279
16	0x383ea178	4.544991e-05
17	0x39f3e4b9	0.00046518983
18	0x3a814ccb	0.0009864805
19	0x3b1f97b9	0.0024351908
20	0x395c8937	0.00021031951
21	0x3a2271bf	0.0006196759
22	0x3aa06645	0.001223751
23	0xba247920	-0.00062741525
24	0x398872b7	0.0002602541
25	0x39bc33aa	0.00035896647
26	0x39f8df02	0.000474684
27	0x3aabc475	0.0013104813
28	0xba82bcaf	-0.0009974445
29	0x38c88872	9.562158e-05
30	0xb9f4157c	-0.00046555314
31	0xba832c49	-0.0010007705
32	0x39d21dac	0.0004007643
33	0x3b46e888	0.0030351002
34	0xba9ccda8	-0.0011963146
35	0xb9b74929	-0.00034958989
36	0x37675d29	1.37903635e-05
37	0x3a484b4c	0.00076406146
38	0x394d79e2	0.00019595728
39	0xb9a24fe6	-0.00030958577
40	0xb9718613	-0.00023033498
41	0x39213e37	0.00015377333
42	0xb910ead4	-0.0001382039
43	0x3a9f8f57	0.0012173456
44	0xb95689a9	-0.00020459913
45	0xb8caaa5a	-9.663841e-05
46	0xb9834753	-0.00025039408
47	0xb91ca0a0	-0.00014937157
48	0xb9ef4628	-0.00045637903
49	0x3a4f949c	0.0007918568
50	0x3a29ae7d	0.0006472839
51	0x35827308	9.719233e-07
52	0xb9d03afc	-0.00039716798
53	0xb947de8b	-0.00019061023
54	0x3704a71a	7.9067195e-06
55	0x39bcddf4	0.00036023522
56	0x3a28c41a	0.0006437913
57	0xb9d87ad3	-0.00041290242
58	0x390c5a45	0.00013385068
59	0x3adf52eb	0.0017038261
60	0x394deedd	0.00019639307
61	0x39b9dd9e	0.00035451067
62	0xba3a839d	-0.0007114949
63	0x3a59778e	0.0008295708

transformer_encoder.layers.1.linear2.bias f4 [64]
0	0xbbf20c60	-0.007386729
1	0x3bbb1541	0.005709321
2	0x3c3e9cc1	0.011634053
3	0xbc9bf2ab	-0.019036612
4	0x3cacb9f6	0.021084767
5	0xbbc5ead3	-0.006039956
6	0xbcb5c9b2	-0.022190902
7	0x3bb756d7	0.005595069
8	0x3bf2bb78	0.007407602
9	0x3b721a00	0.0036941767
10	0xbc85918e	-0.016304757
11	0xbc30445a	-0.010758484
12	0x3b2fbc64	0.002681517
13	0x3c684ced	0.014178497
14	0x3befd559	0.007319134
15	0x3c9c7666	0.019099426
16	0xbc2cbd4a	-0.010543177
17	0xba93bdc8	-0.0011271769
18	0x3b83c8de	0.004021748
19	0x3c48e3e3	0.012261364
20	0x3c7c2d91	0.015391723
21	0xbb3adf04	-0.0028514275
22	0xbc87c89c	-0.01657515
23	0x3c456091	0.012046949
24	0xbb9e7a88	-0.004836384
25	0x3c363878	0.011121862
26	0x3ca268d9	0.019825386
27	0xbc8de853	-0.017322695
28	0x3b750b09	0.003739061
29	0x3bad7e74	0.0052946154
30	0xba831751	-0.0010001456
31	0xbc26e89b	-0.010187293
32	0xbc7cd251	-0.015431003
33	0x3c183654	0.009290297
34	0xbbf1726a	-0.0073683755
35	0xbc1d55e4	-0.009602997
36	0xbc4b15b1	-0.012395308
37	0xbb982f19	-0.0046442864
38	0x3cb25eaf	0.021773664
39	0x3b838cd0	0.004014589
40	0xbcae22c9	-0.021256821
41	0x3c1519a0	0.009100348
42	0x3c0dba8c	0.008650433
43	0x3c819270	0.015816897
44	0x3a909fc7	0.0011033945
45	0x3c350682	0.011048915
46	0xbc44a34f	-0.012001826
47	0x3c2556ea	0.010091523
48	0xbc690ec9	-0.014224716
49	0xbba24369	-0.0049518836
50	0x3bd68b2b	0.006547352
51	0xbb6d96bd	-0.0036253177
52	0x3c1f6f69	0.009731152
53	0x3c220d34	0.009890843
54	0x3c9f78bf	0.019466756
55	0xbbe6564e	-0.0070293313
56	0xbc0ba09a	-0.008522177
57	0xbcaaf08a	-0.020866651
58	0xbca70e68	-0.020392612
59	0xbc811b9e	-0.01576024
60	0xbb8d8854	-0.00431923
61	0x3cabd690	0.020976335
62	0xbcb4a176	-0.022049647
63	0x3c02cb5d	0.007983056

transformer_encoder.layers.1.norm1.weight f4 [64]
0	0x3f7ffa19	0.99990994
1	0x3f803d3c	1.0018687
2	0x3f80056d	1.0001656
3	0x3f7fc908	0.99916124
4	0x3f801d53	1.0008949
5	0x3f8063d6	1.0030468
6	0x3f7f8ff3	0.99829024
7	0x3f800fdf	1.0004843
8	0x3f7ff57c	0.99983954
9	0x3f8003e6	1.000119
10	0x3f802734	1.0011964
11	0x3f8019d0	1.0007877
12	0x3f800a23	1.0003093
13	0x3f800f07	1.0004586
14	0x3f7f596a	0.9974581
15	0x3f7fe2f7	0.99955696
16	0x3f800902	1.0002749
17	0x3f80174d	1.0007111
18	0x3f7f8a7b	0.9982068
19	0x3f7fe726	0.9996208
20	0x3f801bbe	1.0008466
21	0x3f803524	1.0016217
22	0x3f802735	1.0011965
23	0x3f7fc0d6	0.9990362
24	0x3f802196	1.001025
25	0x3f7f656d	0.9976414
26	0x3f7fbbbd	0.9989584
27	0x3f8041de	1.0020101
28	0x3f80238a	1.0010846
29	0x3f8009f5	1.0003039
30	0x3f7f47b3	0.9971878
31	0x3f7f948d	0.99836046
32	0x3f7fbaf2	0.9989463
33	0x3f807682	1.0036166
34	0x3f804527	1.0021104
35	0x3f7f90bb	0.99830216
36	0x3f7f013b	0.9961125
37	0x3f8003f1	1.0001203
38	0x3f8001ba	1.0000527
39	0x3f802ed3	1.001429
40	0x3f804a93	1.0022758
41	0x3f7f8762	0.9981595
42	0x3f800f5e	1.000469
43	0x3f805ee7	1.0028962
44	0x3f7fa3ae	0.9985913
45	0x3f80630b	1.0030226
46	0x3f7f14f6	0.9964136
47	0x3f8015c2	1.000664
48	0x3f802f51	1.001444
49	0x3f80185c	1.0007434
50	0x3f7fa794	0.9986508
51	0x3f7fe598	0.9995971
52	0x3f802167	1.0010194
53	0x3f7f5160	0.99733543
54	0x3f800bf1	1.0003644
55	0x3f8034ca	1.001611
56	0x3f7f681f	0.9976825
57	0x3f80021c	1.0000644
58	0x3f7fc96f	0.9991674
59	0x3f80888e	1.0041673
60	0x3f7ffc69	0.9999452
61	0x3f7fe823	0.9996359
62	0x3f7fd73a	0.99937785
63	0x3f7ff204	0.9997866

transformer_encoder.layers.1.norm1.bias f4 [64]
0	0xb971b2df	-0.00023050186
1	0x38f2f584	0.0001158519
2	0xba449e2f	-0.0007500378
3	0xb9f19b3f	-0.0004608277
4	0x3961ddc3	0.00021540285
5	0xb8196b4a	-3.6577963e-05
6	0x38b2a1a0	8.5178064e-05
7	0xba14bbad	-0.0005673718
8	0xba0126ce	-0.0004926742
9	0xb9dc74e4	-0.0004204876
10	0x3a6624a2	0.00087792624
11	0xb9f89a5b	-0.0004741725
12	0xb9a910b2	-0.0003224663
13	0x3a3b02a5	0.0007133878
14	0x384a977c	4.8301634e-05
15	0xb5b563d0	-1.35146e-06
16	0xb81d48d0	-3.749953e-05
17	0x39bb351b	0.00035706986
18	0x3a222028	0.0006184601
19	0x3b23f607	0.002501847
20	0x39041650	0.00012596813
21	0x39e61b84	0.0004388952
22	0x3a252663	0.00062999706
23	0xba10483b	-0.0005503927
24	0x361a264c	2.297008e-06
25	0x394aa112	0.00019324225
26	0x39974a5c	0.00028856366
27	0x3a2ecd6d	0.0006668184
28	0xba6380b1	-0.00086785393
29	0x39a5737e	0.000315573
30	0xb9f5d280	-0.00046886876
31	0xba968df4	-0.0011486397
32	0x395438f2	0.0002023911
33	0x3b2cf4ee	0.0026391107
34	0xba110cd5	-0.0005533223
35	0xba2fbf65	-0.000670424
36	0xb92f3fb0	-0.00016713026
37	0x3a2e044a	0.00066382124
38	0x3a132d82	0.0005614386
39	0xba52dd20	-0.00080438145
40	0xb96ba8d0	-0.00022474234
41	0x3860d9df	5.360867e-05
42	0xb9e39d21	-0.00043413884
43	0x3a550191	0.00081255386
44	0x39f3d8da	0.0004651014
45	0xb9a41a81	-0.00031300265
46	0xba1eee2a	-0.0006062711
47	0x3924bea2	0.00015711275
48	0xba85f728	-0.0010220753
49	0x3a80bbcc	0.0009821593
50	0x3a708db9	0.0009176392
51	0x395466f8	0.00020256254
52	0xb999fc44	-0.00029370387
53	0xb9a45608	-0.00031344616
54	0x36b1243e	5.27923e-06
55	0xb8dc792a	-0.00010512986
56	0x39d01ae9	0.000396929
57	0xb9e03830	-0.00042766472
58	0x39d79aa8	0.00041123223
59	0x3adac139	0.0016689665
60	0x388c4e0e	6.690259e-05
61	0x3989629d	0.0002620415
62	0xb97a2fa6	-0.00023859608
63	0x39919d3a	0.00027773698

transformer_encoder.layers.1.norm2.weight f4 [64]
0	0x3f7fb7af	0.99889654
1	0x3f80338b	1.001573
2	0x3f7ff93d	0.9998968
3	0x3f7f8cf2	0.9982444
4	0x3f80022e	1.0000665
5	0x3f804f67	1.0024232
6	0x3f7f7b31	0.9979735
7	0x3f800cea	1.0003941
8	0x3f7f8e8b	0.9982688
9	0x3f7fdbee	0.9994496
10	0x3f8021f3	1.001036
11	0x3f8006ec	1.0002112
12	0x3f800860	1.0002556
13	0x3f7f6e94	0.99778104
14	0x3f7f6f44	0.9977915
15	0x3f7fd33f	0.9993171
16	0x3f7ff763	0.9998686
17	0x3f800bb4	1.0003572
18	0x3f7f786a	0.9979311
19	0x3f7fba66	0.99893796
20	0x3f7fd8c1	0.99940115
21	0x3f80212b	1.0010122
22	0x3f7ff17e	0.9997786
23	0x3f7f9d44	0.99849343
24	0x3f801cb1	1.0008756
25	0x3f7f643c	0.9976232
26	0x3f7f62b8	0.9976001
27	0x3f802f55	1.0014445
28	0x3f801831	1.0007383
29	0x3f8018c3	1.0007557
30	0x3f7fa7b7	0.9986529
31	0x3f7f99b0	0.99843884
32	0x3f7fac5c	0.99872375
33	0x3f80103b	1.0004953
34	0x3f7f8368	0.99809885
35	0x3f7f6091	0.99756724
36	0x3f7ee9fe	0.99575794
37	0x3f7fd421	0.9993306
38	0x3f7fdd06	0.9994663
39	0x3f803aba	1.0017922
40	0x3f80410c	1.0019851
41	0x3f7f2ba3	0.9967596
42	0x3f7fe993	0.9996578
43	0x3f7fdf81	0.99950415
44	0x3f7f5f94	0.99755216
45	0x3f8021a3	1.0010265
46	0x3f7f07fb	0.9962155
47	0x3f80064d	1.0001923
48	0x3f7ff709	0.9998632
49	0x3f800283	1.0000767
50	0x3f7fa333	0.998584
51	0x3f7fc8db	0.99915856
52	0x3f802496	1.0011165
53	0x3f7f5d8e	0.9975213
54	0x3f800252	1.0000708
55	0x3f7fdaef	0.9994344
56	0x3f7f3dcf	0.9970369
57	0x3f7ff656	0.99985254
58	0x3f7fcc5b	0.99921197
59	0x3f7fe62c	0.9996059
60	0x3f7fccf6	0.9992212
61	0x3f7fec6b	0.9997012
62	0x3f7fac24	0.9987204
63	0x3f7f6ae8	0.997725

transformer_encoder.layers.1.norm2.bias f4 [64]
0	0xb9a7de2e	-0.0003201826
1	0x396b367f	0.00022431648
2	0xba25950a	-0.0006316459
3	0xb9f42ab6	-0.0004657113
4	0x39f21192	0.00046170928
5	0x38852600	6.349012e-05
6	0xb9bbf392	-0.00035848893
7	0xb9f73be0	-0.00047156122
8	0x39941722	0.00028245995
9	0xb9ac7d4a	-0.00032899744
10	0x39bbf4fd	0.0003584995
11	0xb99d19bc	-0.00029964547
12	0xb98c64c7	-0.00026777966
13	0x3808d329	3.2621585e-05
14	0xb8abcc1b	-8.191933e-05
15	0x39290369	0.00016118366
16	0xb960722e	-0.0002140484
17	0x39c97058	0.0003842141
18	0x397c78fd	0.00024077664
19	0x39785d9d	0.00023685997
20	0x3933be84	0.00017141743
21	0xb9185292	-0.0001452661
22	0xb98fdd9e	-0.00027440203
23	0xb9e871e0	-0.00044335332
24	0x388c7acd	6.698594e-05
25	0x39a6e038	0.00031829043
26	0xb98d0f5a	-0.00026905054
27	0x3901cde4	0.00012379099
28	0xba355e4e	-0.00069186545
29	0xba0942d7	-0.0005236095
30	0xba6699fe	-0.00087967503
31	0xb9b201e0	-0.00033952203
32	0xb904f242	-0.00012678749
33	0x39c5e4be	0.00037745194
34	0xb9b7a2ba	-0.0003502572
35	0x39bf42d8	0.0003648016
36	0x397dad55	0.00024192531
37	0xb98a6c8a	-0.0002640228
38	0x3982db2e	0.00024958834
39	0xb9ce3c43	-0.0003933628
40	0xb99e0144	-0.0003013705
41	0xb9cdb194	-0.00039232953
42	0xb9d50eac	-0.00040637457
43	0x39db209e	0.00041795237
44	0xb963c2fa	-0.00021721041
45	0xba02ada2	-0.000498498
46	0xb9da75c4	-0.00041667942
47	0xb86fa6c6	-5.713736e-05
48	0xb979e23e	-0.00023830772
49	0x39c932aa	0.00038375455
50	0x398e74c0	0.00027171336
51	0x39c30998	0.00037200446
52	0xba10d8ce	-0.00055254705
53	0x39778ca2	0.00023608145
54	0x39cfeab3	0.0003965698
55	0x38cd4e5c	9.789757e-05
56	0x38227de1	3.8741044e-05
57	0x3921bffd	0.00015425678
58	0x39f653a5	0.00046983096
59	0xba08fd08	-0.0005225693
60	0x39df0a20	0.00042541418
61	0x398edc34	0.00027248415
62	0x3777fb10	1.4780802e-05
63	0xb7e2f0e2	-2.705347e-05

head_direction.weight f4 [1, 64]
0	0xbdbf9d5f	-0.09356188
1	0xbda01def	-0.078182094
2	0xbd6d6b26	-0.057963513
3	0xbdec7f17	-0.11547678
4	0x3d915cc4	0.07097772
5	0xbd850fcb	-0.06497153
6	0xbd386bbc	-0.04502462
7	0x3d157a34	0.036493495
8	0x3d8935ef	0.0669974
9	0xbdb5ae63	-0.08871152
10	0xbce32470	-0.027727336
11	0x3df30a0e	0.11867152
12	0x3dd72cd0	0.10506594
13	0x3d4e7065	0.050400157
14	0x3d819929	0.06328041
15	0x3dec69a8	0.1154359
16	0x3d192493	0.037388396
17	0x3c8fa6bf	0.017535565
18	0x3de628ac	0.11238226
19	0x3cef3ddd	0.029204303
20	0xbdad1c9f	-0.08452725
21	0x3c3a85c8	0.011384435
22	0x3ce8701f	0.028373776
23	0x3c4680d3	0.012115675
24	0xbd2dadae	-0.042401962
25	0x3ddb59d7	0.10710495
26	0xbd7777d5	-0.060417015
27	0xbd23fa4e	-0.04003363
28	0xbd0eaf65	-0.034835238
29	0xbc578a84	-0.013155583
30	0xbde5f296	-0.1122791
31	0x3d0a4cff	0.033764835
32	0xbd627d16	-0.055295072
33	0x3cec4ef6	0.028846245
34	0xbc846111	-0.016159566
35	0x3cdc388e	0.026882436
36	0xbd7826bc	-0.060583815
37	0x3c84001e	0.016113337
38	0xbddf5c2f	-0.109062545
39	0xbc708297	-0.014679573
40	0xbd56fdd7	-0.052488174
41	0xbda150a9	-0.07876713
42	0x3dc7cb78	0.097556055
43	0xbcf12e1f	-0.029440938
44	0xba6e99a0	-0.00091018714
45	0x3d3ec78a	0.046577014
46	0x3da01151	0.07815803
47	0xbda732de	-0.08163999
48	0x3d15fb11	0.03661639
49	0x3cd053c3	0.025430566
50	0xbc83163d	-0.016001815
51	0xbde3b889	-0.11119182
52	0x3dd19860	0.10234141
53	0x3dc5ea5e	0.096638426
54	0x3dc2dbc9	0.09514577
55	0x3c92fbc1	0.017942311
56	0xbddaeb48	-0.106894076
57	0xbd888a69	-0.06667025
58	0xbdf02779	-0.11726279
59	0x3af718d3	0.0018852003
60	0xbd2667c5	-0.040626306
61	0x3d945cd2	0.072442666
62	0xbd0dab6b	-0.034587305
63	0x3d9e8473	0.077401064

head_confidence.weight f4 [1, 64]
0	0x3dd4e5ce	0.10395394
1	0xbbab6a66	-0.0052311895
2	0xbd8ecc3c	-0.06972548
3	0x3dda1258	0.1064803
4	0xbdd3411c	-0.10315153
5	0x3da749fa	0.08168407
6	0xbdb35b22	-0.087576166
7	0x3dc6dd2a	0.097101524
8	0x3cc471a2	0.023979966
9	0x3d8cc8d0	0.068742394
10	0x3de72404	0.11286166
11	0xbc69bec0	-0.01426667
12	0x3cb5c290	0.022187501
13	0xbdf299d0	-0.11845744
14	0x3cf25020	0.029579222
15	0x3dee424c	0.11633739
16	0xbd9f6624	-0.07783154
17	0x3dc3f500	0.095682144
18	0xbbea2880	-0.0071459413
19	0x3d89a7d6	0.06721465
20	0xbda9eac4	-0.08296731
21	0x3dd8ef04	0.105924636
22	0xbcce484c	-0.025180958
23	0xbdcea936	-0.10090868
24	0x3db001d2	0.08594097
25	0x3ce12a36	0.027485948
26	0xbaada158	-0.0013246937
27	0x3cc536d2	0.024073992
28	0xbc9a8f64	-0.018867202
29	0xbd7f66ea	-0.062354006
30	0xbd85e2a4	-0.06537369
31	0xbd48a72a	-0.048987545
32	0xbb3adfd8	-0.002851477
33	0xbdf9d0ea	-0.1219805
34	0x3d80d09c	0.06289789
35	0xbdbad07a	-0.09121795
36	0xbdcabf54	-0.09899774
37	0x3de2fc2a	0.11083253
38	0xbda62a68	-0.08113557
39	0xbd903386	-0.07041077
40	0x3d9ddd5e	0.07708238
41	0x3db800d2	0.089845315
42	0xbd06008a	-0.032715358
43	0x3d64348e	0.055714183
44	0x3d2e22dc	0.042513713
45	0xbd7c673a	-0.061621882
46	0x3de5cdf2	0.112209216
47	0xbd07e602	-0.033178337
48	0xbb0e5562	-0.0021718373
49	0x3dcb6976	0.099322245
50	0x3ca5ccc6	0.020239245
51	0x3d57bf2c	0.05267255
52	0xbd339f88	-0.043853313
53	0x3df9a346	0.12189345
54	0x3dbfada0	0.09359288
55	0x3dc11e6e	0.09429632
56	0x3d06c10e	0.032898955
57	0x3d726e24	0.05918707
58	0xbdb99c14	-0.09062973
59	0xbdae9b5a	-0.08525725
60	0x3da88a88	0.08229548
61	0x3dd76082	0.10516454
62	0x3df55b02	0.11980249
63	0x3dc97904	0.09837535
